…
            (fc2): Linear(in_features=2048, out_features=1024, bias=True)
            (drop): Dropout(p=0.0, inplace=False)
          )
        )
      )
    )
  )
  (norm): LayerNorm((1024,), eps=1e-05, elementwise_affine=True)
  (avgpool): AdaptiveAvgPool1d(output_size=1)
  (head): Linear(in_features=1024, out_features=1000, bias=True)
)
==========================================================================================
Layer (type:depth-idx)                   Output Shape              Param #
==========================================================================================
├─ConvTokenizer: 1-1                     [-1, 56, 56, 128]         --
|    └─Sequential: 2-1                   [-1, 128, 56, 56]         --
|    |    └─Conv2d: 3-1                  [-1, 64, 112, 112]        1,792
|    |    └─Conv2d: 3-2                  [-1, 128, 56, 56]         73,856
|    └─LayerNorm: 2-2                    [-1, 56, 56, 128]         256
├─Dropout: 1-2                           [-1, 56, 56, 128]         --
├─ModuleList: 1                          []                        --
|    └─NATBlock: 2-3                     [-1, 28, 28, 256]         --
|    |    └─ConvDownsampler: 3-3         [-1, 28, 28, 256]         295,424
|    └─NATBlock: 2-4                     [-1, 14, 14, 512]         --
|    |    └─ConvDownsampler: 3-4         [-1, 14, 14, 512]         1,180,672
|    └─NATBlock: 2-5                     [-1, 7, 7, 1024]          --
|    |    └─ConvDownsampler: 3-5         [-1, 7, 7, 1024]          4,720,640
|    └─NATBlock: 2-6                     [-1, 7, 7, 1024]          --
├─LayerNorm: 1-3                         [-1, 7, 7, 1024]          2,048
├─AdaptiveAvgPool1d: 1-4                 [-1, 1024, 1]             --
├─Linear: 1-5                            [-1, 1000]                1,025,000
==========================================================================================
Total params: 7,299,688
Trainable params: 7,299,688
Non-trainable params: 0
Total mult-adds (G): 1.12
==========================================================================================
Input size (MB): 0.57
Forward/backward pass size (MB): 18.00
Params size (MB): 27.85
Estimated Total Size (MB): 46.42
…
