…
            (fc2): Linear(in_features=1536, out_features=512, bias=True)
            (drop): Dropout(p=0.0, inplace=False)
          )
        )
      )
    )
  )
  (norm): LayerNorm((512,), eps=1e-05, elementwise_affine=True)
  (avgpool): AdaptiveAvgPool1d(output_size=1)
  (head): Linear(in_features=512, out_features=1000, bias=True)
)
==========================================================================================
Layer (type:depth-idx)                   Output Shape              Param #
==========================================================================================
├─ConvTokenizer: 1-1                     [-1, 56, 56, 64]          --
|    └─Sequential: 2-1                   [-1, 64, 56, 56]          --
|    |    └─Conv2d: 3-1                  [-1, 32, 112, 112]        896
|    |    └─Conv2d: 3-2                  [-1, 64, 56, 56]          18,496
|    └─LayerNorm: 2-2                    [-1, 56, 56, 64]          128
├─Dropout: 1-2                           [-1, 56, 56, 64]          --
├─ModuleList: 1                          []                        --
|    └─NATBlock: 2-3                     [-1, 28, 28, 128]         --
|    |    └─ConvDownsampler: 3-3         [-1, 28, 28, 128]         73,984
|    └─NATBlock: 2-4                     [-1, 14, 14, 256]         --
|    |    └─ConvDownsampler: 3-4         [-1, 14, 14, 256]         295,424
|    └─NATBlock: 2-5                     [-1, 7, 7, 512]           --
|    |    └─ConvDownsampler: 3-5         [-1, 7, 7, 512]           1,180,672
|    └─NATBlock: 2-6                     [-1, 7, 7, 512]           --
├─LayerNorm: 1-3                         [-1, 7, 7, 512]           1,024
├─AdaptiveAvgPool1d: 1-4                 [-1, 512, 1]              --
├─Linear: 1-5                            [-1, 1000]                513,000
==========================================================================================
Total params: 2,083,624
Trainable params: 2,083,624
Non-trainable params: 0
Total mult-adds (M): 297.09
==========================================================================================
Input size (MB): 0.57
Forward/backward pass size (MB): 9.00
Params size (MB): 7.95
Estimated Total Size (MB): 17.53
…
